Archive/Final User Interface of Chatbot Page/data.pth (torch, 5951 bytes, 6 tensors)

l1.weight f4 [8, 75]
000000 43 b1 15 3e e2 65 fe 3e bb ee 07 3d b8 0e f6 bb
       0.14618401 0.49687105 0.033186655 -0.007509079
000010 82 22 3d be 0c ad 25 3e 85 4b 52 3e 44 30 4a bb
       -0.18470195 0.16179293 0.20536621 -0.0030851522
000020 a0 5b 35 be df 9b 6a 3f 49 97 27 be 8f 98 99 3e
       -0.17710733 0.9164409 -0.16366304 0.29999205
000030 61 1c 6b be 0d 0e 05 3e e2 c8 17 3e 67 c7 a5 be
       -0.22960044 0.12993641 0.14822724 -0.32378694
000040 74 98 7f be e6 fb 84 be 8a 56 74 be 28 cc 67 be
       -0.249605 -0.25973433 -0.23861137 -0.22636473
000050 a6 62 40 3e df 8f 40 bd ed fc 7f be b2 a8 23 3e
       0.18787631 -0.047012206 -0.24998827 0.15982321
000060 bc b8 66 3f b8 14 b0 3e 72 53 6c be 9e 08 1b 3d
       0.9012563 0.34390807 -0.23078707 0.037850015
000070 e6 6f 22 3f a4 ef 07 3e 6f 97 f9 3d da 1f 40 3d
       0.63451993 0.1327501 0.12187087 0.046905376
000080 d1 82 7a be 03 09 4c 3e 81 c9 71 be 2c a3 31 bd
       -0.24463965 0.19925313 -0.23612024 -0.043368503
000090 62 83 5c 3e 5c 0e 6a 3e c3 0e f7 3e 27 de 3c 3e
       0.21534494 0.2285704 0.4825345 0.1844412
0000a0 bc 3d 70 be 2e 96 01 3f 64 e7 79 3e 81 2e 34 3d
       -0.2346105 0.5061978 0.24404675 0.043989662
0000b0 23 66 b7 3e 84 f1 dc bd 9c 63 9f 3e 9e 46 4a be
       0.35820112 -0.10788253 0.31130683 -0.19753501
0000c0 c3 b4 2d 3d ff 7d ab bd f5 b5 b0 bd 57 4f 34 be
       0.042408716 -0.08373641 -0.086284555 -0.17608391
0000d0 52 e0 9e bd d0 08 f5 3e 3f 7c a9 be 73 98 83 3e
       -0.077576295 0.47858286 -0.33102605 0.25702247
0000e0 cb e2 54 3e 86 29 4c be 80 ac 6d be 99 f7 ae 3e
       0.2078964 -0.19937715 -0.23210335 0.34173277
0000f0 d9 4a 32 3f fe ec a6 3e 85 4b 07 3e ba 50 82 3e
       0.6964546 0.32602686 0.13212402 0.25452214
000100 f6 3e b5 be 7b 74 c3 3d ea ce 96 3e 37 8d 73 be
       -0.35399598 0.09543701 0.29454738 -0.23784338
000110 67 60 70 be ef 25 3a bc 4a de 16 be 2e 47 1a 3e
       -0.23474275 -0.011361583 -0.14733234 0.15066215
000120 b8 9f a3 be 99 d8 d5 be f6 34 06 3f 76 7d 8a 3c
       -0.31957793 -0.41766813 0.5242456 0.016905528
000130 1d d1 cf 3c 56 ca cd 3c 2a ec 64 3e 54 ac 1f be
       0.025368268 0.025120895 0.22355714 -0.15593082
000140 30 f8 21 3f 75 75 01 3f 96 62 eb bd e1 20 2f 3e
       0.6326933 0.5056985 -0.11493413 0.17102386
000150 cc b7 22 bf b8 03 92 3c cd 1e bf bd 53 6b 49 be
       -0.635617 0.017824039 -0.09332047 -0.19669847
000160 06 05 d3 3e 18 7a f5 3e 31 78 73 3e 32 f3 0c 3e
       0.4121477 0.47944713 0.23776318 0.13764647
000170 93 64 90 3e b7 8d 9b 3c 3d af 90 3e 39 7e 97 3e
       0.28201732 0.018988473 0.28258696 0.29588488
000180 af 07 c8 3d ad f3 6a 3e 76 ed 11 3f 42 6e 21 bf
       0.097670905 0.22944517 0.5700296 -0.63058865
000190 4f e4 29 be 3c cb 19 bd 13 64 4b 3f 5c 88 b0 be
       -0.16590999 -0.037547335 0.79449576 -0.34479034
0001a0 66 5c 48 3f e7 85 42 3f ff 60 c6 3e e9 f1 df bd
       0.7826599 0.7598557 0.38745877 -0.109348126
0001b0 4a 8f 9c 3e af f4 f6 3d 8c 40 0d 3e 41 fb 1c 3f
       0.3057807 0.120583884 0.13794154 0.61320883
0001c0 2f 7c d8 3e 82 e6 d3 be d7 b7 b9 3c ca 7d 8d 3e
       0.42282245 -0.413868 0.02267067 0.27635032
0001d0 21 fd c8 bd 10 83 12 3f fe dd 4a 3e ae 1d 1f bd
       -0.098139055 0.57231236 0.19811246 -0.038846664
0001e0 d5 f9 36 be b4 62 3e be c2 18 d2 bd 53 f8 8f 3c
       -0.17868741 -0.1859234 -0.102586284 0.017574465
0001f0 ef 2b 84 be b7 81 82 3e e3 ca ba 3d 03 b1 8d 3e
       -0.2581477 0.2548959 0.09120729 0.27674112
000200 e8 1f b2 be 05 7b ae 3e 6b ac 8e 3e 37 9a 01 be
       -0.34789968 0.3407823 0.2786592 -0.12656485
000210 db 63 ad be e8 08 8a 3e 18 46 0c 3f e3 5b 27 bf
       -0.33865246 0.2695992 0.54794455 -0.65374583
000220 93 d8 8c be 69 f7 79 3e a1 f1 83 3e 91 b1 1f 3e
       -0.27508983 0.24410786 0.25770286 0.1559508
000230 0e fe 80 bd 74 9b 6b be ba 40 fc 3d 32 51 65 3e
       -0.06298457 -0.2300852 0.12317033 0.22394255
000240 42 85 55 3e 67 81 33 be 1d 56 32 be 03 d6 89 3e
       0.20851615 -0.17529832 -0.17415662 0.2692109
000250 37 a6 c6 3e 31 ac 16 3e ca 45 81 3d 8f 0c b1 3e
       0.38798687 0.14714123 0.06312139 0.34579894
000260 06 57 2e 3f 7d b2 07 be 21 3a a3 3e 34 be 6e be
       0.6810154 -0.13251682 0.31880286 -0.23314744
000270 05 7f e7 be 02 ce b2 3e dd 7c 2f be 11 83 02 bf
       -0.45214096 0.34922796 -0.17137475 -0.5098124
000280 95 20 67 3e b1 31 33 3e 5e e7 b3 3e 86 b3 46 be
       0.22571023 0.17499425 0.35137457 -0.1940442
000290 38 6b a7 3e d7 3f 88 be 70 b3 b1 bd f2 28 a8 be
       0.3269899 -0.26611206 -0.08676803 -0.3284374
0002a0 55 e7 26 3e cd e5 5b be 7b 08 f0 3e c7 cf 79 bd
       0.16299184 -0.21474381 0.4688147 -0.060989168
0002b0 e9 32 e6 be 1e 0a 7d be 4c 85 02 bf 4b 3d 3c 3e
       -0.44960716 -0.2471089 -0.50984645 0.18382756
0002c0 a6 41 a1 3e 31 36 e2 be 2d 1d 99 3e f6 de e8 be
       0.31495398 -0.4418197 0.29905072 -0.45482606
0002d0 01 ba ed be 54 41 19 3d 11 f9 fb 3e 1b ee f9 bd
       -0.46430972 0.037415817 0.4921346 -0.12203618
0002e0 56 50 dd 3d 07 e0 bf bd 3b 69 f9 3e b6 b6 fe 3e
       0.108063385 -0.09368902 0.48713097 0.49748772
0002f0 9a 7a d6 be 68 62 a2 3d 48 b3 9c be a1 17 ec 3d
       -0.41890413 0.07928926 -0.3060553 0.11527944
000300 6e cd 06 3f 0d 54 12 bc 59 71 b4 bd ea 5e 9a 3e
       0.5265721 -0.008931172 -0.08810682 0.3015054
000310 a7 1e 59 3e 9a 13 a6 3e 6a 92 43 39 79 15 b9 3e
       0.21203099 0.3243683 0.00018651193 0.36149195
000320 f7 02 27 be 25 00 3c be 97 bc 2e be b8 b7 b5 be
       -0.16309725 -0.1835943 -0.17064129 -0.3549173
000330 37 88 8b be 1e 46 e3 3e df ad a6 3e 7e 4c c7 3e
       -0.2725236 0.44389433 0.32554528 0.38925546
000340 67 1b a7 be bd 04 09 3f 46 51 3e 3f f2 8c f5 3e
       -0.32638094 0.53522855 0.74342763 0.47959095
000350 ec 30 f1 3d 3e f9 d1 bd 7c 9a 9c be c3 51 8e 3e
       0.11776909 -0.10252617 -0.30586612 0.27796754
000360 18 12 c6 3d 53 37 a5 be 76 4a 9c be 24 ff 3c bb
       0.0967142 -0.32268772 -0.3052556 -0.00288386
000370 bd 07 48 3e a1 e2 49 3e ca 75 34 be 8a b8 ae be
       0.19534202 0.19715358 -0.17623058 -0.34125167
000380 54 50 ae 3e 3f d1 38 bc af e6 e2 3e db 32 6c ba
       0.3404566 -0.011280357 0.44316623 -0.00090102636
000390 9e 29 15 3e 1e 70 b6 3e 13 86 91 3e ee 8e 0e 3f
       0.14566657 0.35632414 0.28422603 0.55686843
0003a0 ff 6e c0 3e c5 5d 81 3e 13 02 fb be b6 10 4c 3e
       0.37584683 0.25266853 -0.4902502 0.1992825
0003b0 aa 42 b8 be 47 5d da 3e e0 9b 8a 3e be 70 02 3e
       -0.3598836 0.4264929 0.27072048 0.1273832
0003c0 f4 28 b4 3e 83 f5 91 3e a9 3b 6e 3e b6 4a f1 3e
       0.35187495 0.28507623 0.23264946 0.47127312
0003d0 a9 07 b2 3e c1 36 2f be 2e 4b 68 3e cb d7 d4 3e
       0.3477147 -0.1711073 0.22684929 0.41570887
0003e0 ce 7f 4c 3e 84 0e fb be ea 95 7c be a6 6f 0f 3f
       0.19970629 -0.49034512 -0.24666563 0.56029737
0003f0 54 a5 0b 3f df 9f 9a 3e 9c 2f 02 3f 65 1a 18 3f
       0.54549146 0.30200097 0.50853896 0.59415275

l1.bias f4 [8]
000000 ed 1b 79 3f af f7 24 3f 46 84 02 3f d6 02 fb 3e
       0.97308236 0.64440435 0.50983083 0.490256
000010 22 a1 43 3f 84 53 8f 3e 55 20 c1 3e 48 ea 30 3f
       0.76417744 0.27993405 0.3771998 0.69107485

l2.weight f4 [8, 8]
000000 c6 9b 55 3f 75 6e 8b 3e de 27 50 3f 72 6d aa bf
       0.83440816 0.2723271 0.8131083 -1.331465
000010 61 6d 42 3f 57 0e 06 3f fb 5a 53 3f 61 4c 8a bf
       0.7594815 0.5236563 0.825607 -1.0804559
000020 89 a2 74 bf b7 8a 35 3f 22 b0 a5 3e b2 c3 8b 3f
       -0.9556051 0.7091479 0.3236094 1.0919096
000030 8e fd 56 3f 8a a0 84 3f eb 31 79 3f 0a e2 cb 3c
       0.83980644 1.0361493 0.97341794 0.024888057
000040 d4 10 1b 3f 8a 00 a5 3e 2e 00 8b bf a9 74 28 bf
       0.6057255 0.32226974 -1.085943 -0.6580301
000050 f9 ab a1 3f ac 6f a6 3e 1e 82 8b 3e 6a bb 0f 3f
       1.2630607 0.32507074 0.2724771 0.56145346
000060 9c 39 19 3f 5d 68 b7 bf 5b e6 1d 3f 31 c6 a1 3d
       0.5985353 -1.4328724 0.6167962 0.0789913
000070 b0 4a 0b 3f d2 5c 54 3f 93 94 d6 bc 2f dc 73 bd
       0.5441084 0.8295413 -0.026193893 -0.059536155
000080 69 ab 2b bf a3 d9 6b 3f 6c 96 34 bf 24 98 90 3f
       -0.67058426 0.9212896 -0.70542026 1.129643
000090 c3 74 39 3f 68 73 1a 3c 04 7d 14 3f 85 78 ea 3e
       0.7244379 0.009426929 0.5800326 0.45795074
0000a0 30 99 9c 3f 50 da 1e 3f b4 71 09 3f f1 96 11 3f
       1.2234249 0.6205187 0.5368912 0.56870943
0000b0 b3 18 2b 3e d2 0a 97 bf 9e 8c 0b bf 8a 44 72 3f
       0.16708641 -1.1800177 -0.5451144 0.9463583
0000c0 f9 ab ba 3e 41 6d 7d 3f 53 ff 29 3f 7e a3 09 3f
       0.3645933 0.98994833 0.6640522 0.53765094
0000d0 a5 60 02 bf 65 6e f6 be b5 f1 d1 3d d5 11 6b 3f
       -0.5092872 -0.481311 0.1025118 0.91824085
0000e0 25 d3 4e bf 24 f1 8c be 04 18 0a 3f fd 1c 5f 3f
       -0.8079093 -0.27527726 0.53942895 0.8715361
0000f0 b6 13 d4 bd d5 68 26 bd c5 a9 53 3f 7f 28 34 bf
       -0.10355322 -0.04062732 0.8268092 -0.7037429

l2.bias f4 [8]
000000 e8 8d 8e 3e 6d 69 04 bd 94 5a e8 3e d3 c9 2c 3f
       0.2784264 -0.032327104 0.45381606 0.6749546
000010 8e 80 6e 3e f0 0a 61 3f e3 b9 e6 3e 0e 0c 89 3e
       0.23291227 0.87907314 0.45063695 0.2676701

l3.weight f4 [7, 8]
000000 39 2d 67 bc c3 0b 73 3e db 5c 9f bf 2c bf 93 3e
       -0.014109903 0.23734955 -1.2450212 0.2885679
000010 2e 2a b2 3c f6 8c 61 bf 27 e5 ee bd 8e aa 56 3f
       0.021748628 -0.88105714 -0.11664801 0.83853996
000020 ad 23 31 3f 6b ac 54 be f4 7c 90 bf a3 80 94 bf
       0.6919506 -0.20768897 -1.1288133 -1.1601757
000030 7c 3d b2 be 1b 0e 51 bd 6a bb 01 3f 98 63 21 3e
       -0.34812534 -0.051038843 0.50676596 0.15760648
000040 94 e1 57 3e fc 3b a9 bf 33 76 3d 3f 51 b3 c0 3e
       0.21082145 -1.3221431 0.7400848 0.37636808
000050 50 3f c3 be cb 09 21 3e ac 18 e0 be 19 4b 07 bf
       -0.3813424 0.15726392 -0.43768823 -0.52848965
000060 58 95 8a bf 32 48 26 be f5 d7 0e 3f 54 c6 b4 bf
       -1.0826826 -0.16238478 0.55798274 -1.4123025
000070 9d 90 1a 3f e4 2b ea 3e 62 d5 c0 3e d7 29 0a bf
       0.6037691 0.4573661 0.37662798 -0.5397009
000080 eb af 4b bf 59 00 f7 3e bf ef 74 3e 7e 35 2e bf
       -0.79565305 0.48242453 0.23919581 -0.6805037
000090 2b f5 2b 3f bf 69 77 bf 28 41 cd be 7c cd 96 bd
       0.6717097 -0.9664573 -0.40088773 -0.07363412
0000a0 30 dc ad 3e 9d 3d 79 3e d7 85 83 be 3d 28 d5 3e
       0.33957052 0.2433991 -0.2568805 0.41632262
0000b0 b4 15 d5 be 52 29 9c bf ca 0a 7a bf 96 43 0e bf
       -0.4161812 -1.220011 -0.9767271 -0.5557188
0000c0 43 db af bf 76 85 9e bf 21 2e cb be fc 1d 7f 3d
       -1.3738788 -1.2384479 -0.3968363 0.062284455
0000d0 44 8f 21 bf 3b bf 55 3f f4 c0 16 3f 8a 9d 84 be
       -0.6310923 0.8349492 0.58888173 -0.25901443

l3.bias f4 [7]
000000 b3 94 75 be 77 02 15 bd 3c d3 51 bd 7f 32 cb be
       -0.23982506 -0.036379304 -0.05122684 -0.39686963
000010 89 be bc be 53 74 be bd db 16 a7 3e
       -0.36864117 -0.09299531 0.32634625
