Chat-Bot/data.pth (torch, 5951 bytes, 6 tensors)

l1.weight f4 [8, 75]
0	0xbbd76805	-0.0065736794
1	0xbd010d03	-0.03150655
2	0xbef7ce54	-0.48399603
3	0x3e018d78	0.12651622
4	0x3d312ce1	0.04325569
5	0x3eaa74d2	0.33292252
6	0x3ebd4b54	0.36971533
7	0x3d0188dc	0.03162466
8	0x3e655b7b	0.22398178
9	0x3f58b97d	0.8465803
10	0xbd99c24f	-0.075077645
11	0xbe4d57bb	-0.20052998
12	0x3e1cd9f5	0.15317519
13	0x3ee2bd3d	0.44285002
14	0x3e3a9b81	0.18223383
15	0x3e7669ba	0.24063769
16	0x3e5330d1	0.2062409
17	0x3e9ffa5e	0.31245703
18	0x3daba277	0.08380597
19	0x3ec0659c	0.37577522
20	0xbe2f3621	-0.17110492
21	0x3e6420f6	0.22278199
22	0x3e9699dc	0.2941426
23	0x3eb90330	0.36135244
24	0x3f43402e	0.76269805
25	0xbda7d777	-0.081953935
26	0xbceedf4a	-0.029159207
27	0x3ee8f837	0.45501873
28	0xbe9d1a6d	-0.30684224
29	0x3ed69dcc	0.41917264
30	0x3eacea28	0.33772397
31	0x3ea17563	0.3153487
32	0x3b0fe5b0	0.0021956973
33	0x3e14cc56	0.14531073
34	0x3e6f1cd1	0.23350836
35	0x3e87c4cd	0.26517335
36	0xbda72b05	-0.08162502
37	0xbe7cfe76	-0.24706444
38	0x3f0f7c59	0.56049114
39	0xbd4ab5e1	-0.04948986
40	0x3e8023a6	0.25027198
41	0xbdb0fa31	-0.0864147
42	0xbd46d0e6	-0.048539065
43	0x3e31fe04	0.17382056
44	0x3e36d95a	0.1785635
45	0xbe86b917	-0.26313087
46	0xbdc1351d	-0.09433959
47	0xbd89d032	-0.06729163
48	0x3d3730cd	0.044724274
49	0xbe8062a9	-0.25075272
50	0x3e864aa8	0.26228833
51	0x3e9d6cdb	0.30747113
52	0x3eb879ca	0.36030418
53	0x3ee68358	0.45022082
54	0x3e30bad5	0.17258771
55	0xbe392cfb	-0.18083565
56	0xbe637351	-0.22211958
57	0xbe5ef27f	-0.21772192
58	0x3ec90d18	0.39267802
59	0xbe6bb889	-0.23019613
60	0xbf2165bb	-0.63045853
61	0xbe959234	-0.29213107
62	0xbd66a220	-0.05630696
63	0x3e2b5e8b	0.16735284
64	0x3ea7a76f	0.3274493
65	0x3d33b205	0.043870945
66	0xbe4f1ac0	-0.20225048
67	0x3e31c916	0.17361864
68	0x3e9b2d0f	0.30307814
69	0x3e217a21	0.15769245
70	0xbce100f7	-0.02746628
71	0xbe7a99b4	-0.24472696
72	0x3eaa7303	0.33290872
73	0x3eac52af	0.33656833
74	0xb7149b5c	-8.85766e-06
75	0x3b341f45	0.0027484458
76	0x3e71a132	0.23596647
77	0x3f273da0	0.6532841
78	0x3dd35961	0.10319782
79	0x3ef027c9	0.46905354
80	0x3edc1cdb	0.42990765
81	0x3ec64509	0.38724545
82	0x3e926b66	0.28597564
83	0x3cdcb8ea	0.026943643
84	0xbf18f251	-0.59744745
85	0x3ee5a334	0.44851077
86	0xbe869e0f	-0.26292464
87	0x3ed6c659	0.41948202
88	0x3ee782c0	0.45216942
89	0xbbb28989	-0.0054485244
90	0x3de37660	0.111065626
91	0x3e07ef71	0.13274933
92	0xbc09ad9d	-0.008403209
93	0x3eb5dbae	0.35519165
94	0x3dac2811	0.084060796
95	0x3ec1d132	0.37854916
96	0x3e4e3824	0.20138603
97	0x3e06be53	0.1315854
98	0x3f0d8d57	0.5529379
99	0xbf1313f3	-0.57452315
100	0xbe97ebdb	-0.2967213
101	0x3f26ac06	0.65106237
102	0x3f292485	0.6607135
103	0x3e1f6014	0.15563995
104	0x3f277012	0.6540538
105	0x3f06c306	0.5264133
106	0x3edf56ef	0.43621013
107	0x3f0b778a	0.5447928
108	0x3e6a2fd1	0.22869803
109	0x3ecbb90f	0.39789626
110	0x3e19e69e	0.1502938
111	0x3c647b16	0.013945362
112	0xbe4edf4d	-0.2020237
113	0xbe8ce28d	-0.27516595
114	0xba56d082	-0.0008194522
115	0x3e414002	0.18872073
116	0xbe096ad8	-0.13419664
117	0x3d11274a	0.03543786
118	0x3e397a27	0.18113004
119	0xbe56ed93	-0.20989065
120	0x3f0c3f5f	0.54784197
121	0xbdb12f3d	-0.08651588
122	0x3e7deaa5	0.24796541
123	0x3e1cd92b	0.15317218
124	0x3ed27ff4	0.41113245
125	0x3e2bfe1b	0.16796152
126	0x3e61160d	0.21981068
127	0x3dbedaf3	0.09319105
128	0xbeaebd90	-0.34129
129	0x3e5827cc	0.21108931
130	0x3e9f0c83	0.31064233
131	0xbe92fc97	-0.28708336
132	0x3ebd39e0	0.36958218
133	0x3e4451cd	0.1917183
134	0xbbf76f0c	-0.0075510796
135	0x3f37c041	0.7177773
136	0x3f080ff1	0.53149325
137	0xbd469a02	-0.048486717
138	0x3e028011	0.12744166
139	0x3e7a0125	0.24414499
140	0x3ec4c79b	0.38433537
141	0xbec92249	-0.3928397
142	0x3e285f1a	0.16442528
143	0x3e4e7edc	0.2016558
144	0x3d9afb82	0.075675026
145	0x3ee93d58	0.45554614
146	0xbeafcb95	-0.34335008
147	0x3e28448f	0.16432403
148	0x3e0e6620	0.13906145
149	0x3e0fb3b4	0.14033395
150	0x3d8965ec	0.06708893
151	0xbe7ddc51	-0.24791075
152	0x3ef3b0c4	0.475958
153	0xbc3b6081	-0.011436583
154	0x3ee58dc3	0.44834718
155	0xbeb5189c	-0.35370338
156	0xbee0721d	-0.43837062
157	0x3e794e63	0.24346308
158	0xbec785b3	-0.38969192
159	0x3ec1aee7	0.37828752
160	0x3e949d0e	0.29026073
161	0x3e02c440	0.12770176
162	0x3eb7459d	0.35795298
163	0xbe568653	-0.20949678
164	0x3d8ffa0e	0.07030116
165	0xbea059c8	-0.31318498
166	0xbea4dd90	-0.3220029
167	0xbecac092	-0.39600044
168	0x3eadacdf	0.33920953
169	0xbdf65b21	-0.120291
170	0x3e90ef83	0.28307733
171	0xbe0c8276	-0.13721642
172	0xbe8d46c6	-0.27593058
173	0xbe3d57df	-0.18490551
174	0x3ec01a3d	0.37520018
175	0x3e6d045a	0.23146191
176	0x3f14256f	0.5786962
177	0xbee0f34b	-0.43935618
178	0xbe6d0085	-0.2314473
179	0xbee71198	-0.4513061
180	0xbee710ac	-0.45129907
181	0x3ddb272a	0.10700829
182	0x3f0645ba	0.52450144
183	0x3d9f1bf5	0.07769004
184	0xbe0ad5a2	-0.13558057
185	0xbca132ac	-0.019677483
186	0x3e837e3d	0.2568225
187	0x3f003049	0.5007368
188	0x3e304907	0.17215358
189	0x3e85b397	0.2611358
190	0xbe2bcffb	-0.16778557
191	0xbe920d19	-0.28525618
192	0x3eca2435	0.3948075
193	0xbe1670ce	-0.14691469
194	0x3ed36bed	0.41293278
195	0x3f07d2d7	0.5305609
196	0x3ea5d059	0.3238552
197	0x3e31b081	0.17352487
198	0x3e78c9a0	0.24295664
199	0x3ef9f478	0.48819327
200	0xbe3ef880	-0.18649483
201	0xbe0202b4	-0.12696344
202	0xbea5dbd0	-0.32394266
203	0x3e2cfa4e	0.16892359
204	0xbeac43c9	-0.33645466
205	0x3ef3e999	0.47639158
206	0x3e8f1e8c	0.27952993
207	0x3f0753ad	0.52862054
208	0xbe94c488	-0.2905619
209	0x3ed0f5a0	0.40812397
210	0xbef5b694	-0.4799086
211	0x3ce5ec4f	0.028066782
212	0x3ea20500	0.3164444
213	0x3e00d9db	0.12583105
214	0xbe87adfc	-0.26499927
215	0x3ebb21f2	0.36549336
216	0x3eb932ae	0.36171478
217	0xbe3077bb	-0.17233174
218	0xbe2c55b5	-0.1682957
219	0xbd106f00	-0.035262108
220	0x3ebd9cc6	0.3703367
221	0x3e42acae	0.19011185
222	0xbdf8581a	-0.12126179
223	0xbec070cc	-0.37586057
224	0x3dc61b11	0.09673131
225	0x3d54a6e0	0.051916957
226	0xbdc6bad2	-0.09703602
227	0xbd07faea	-0.033198275
228	0xbd0a3d8a	-0.033750094
229	0xbbce15d0	-0.0062892213
230	0x3dc49592	0.09598841
231	0x3d3499a8	0.04409185
232	0x3daf3002	0.08554079
233	0xbd6d211e	-0.05789291
234	0x3cc10188	0.0235603
235	0xbc86b744	-0.01644481
236	0xbd9920f8	-0.074769914
237	0x3db89550	0.09012854
238	0xbd4b3c2e	-0.04961794
239	0x3cc2b9d0	0.023770243
240	0x3dd8940c	0.10575113
241	0x3cf6fd90	0.030150205
242	0x3dded328	0.108801186
243	0xbd5ba364	-0.05362262
244	0x3b67c0c0	0.003536269
245	0x3ce26caa	0.027639706
246	0x3ce620f0	0.028091878
247	0xbdbdf03c	-0.09274337
248	0xbdbb8755	-0.09156672
249	0xbcdc2304	-0.026872166
250	0x3d4e7a24	0.05040945
251	0xbb9fd5e0	-0.004877791
252	0x3dc067be	0.09394787
253	0x3dd2f5b2	0.10300769
254	0xbdbe0815	-0.09278885
255	0xbd7e101c	-0.06202708

l1.bias f4 [8]
0	0x3f2167e2	0.6304914
1	0x3f18f157	0.59743255
2	0x3ee707a6	0.45123023
3	0xbdf7ade5	-0.120937146
4	0x3f221060	0.63306236
5	0x3ee68b8d	0.45028344
6	0x3f189ec7	0.59617275
7	0x3f289206	0.65847814

l2.weight f4 [8, 8]
0	0x3f870a79	1.0550071
1	0xbb955776	-0.0045575453
2	0x3f563777	0.8367838
3	0x3e69ffe6	0.22851524
4	0x3f48739e	0.7830142
5	0xbe6b8b74	-0.23002416
6	0x3fadb4db	1.3570818
7	0x3f2790d8	0.6545539
8	0x3f02e515	0.511308
9	0x3f9e4898	1.2365904
10	0xbf40778e	-0.75182426
11	0xbe57c831	-0.2107246
12	0xbe37f525	-0.17964609
13	0x3dd22f36	0.10262911
14	0xbebe152f	-0.37125537
15	0x3f6d7038	0.9274936
16	0xbec4c4be	-0.38431352
17	0x3f2e2ab5	0.68033916
18	0x3fad4199	1.3535644
19	0x3dc86018	0.097839534
20	0xbf4afe34	-0.79294133
21	0xbe91242a	-0.28347903
22	0x3dfeefbd	0.1244807
23	0x3f76f8b6	0.9647325
24	0x3e86bc7c	0.26315677
25	0x3f69323f	0.91092294
26	0x3f223be3	0.6337263
27	0x3db96e76	0.09054272
28	0x3fb81e3a	1.4384224
29	0xbf7acc84	-0.97968316
30	0xbf9d5011	-1.2290059
31	0x3eb4138f	0.35171172
32	0xbef07845	-0.46966758
33	0x3fa04aba	1.2522805
34	0xbdb2215c	-0.08697769
35	0xbd4d6a88	-0.050150424
36	0x3f4afc15	0.79290897
37	0x3f808349	1.0040065
38	0xbd4c2b7f	-0.04984617
39	0x3f3b9cc0	0.73286057
40	0x3f913b5f	1.1346244
41	0xbef39ee9	-0.47582176
42	0xbc0b1565	-0.008488988
43	0x3e8f3baa	0.27975208
44	0x3f6d3675	0.9266122
45	0x3e510241	0.20411016
46	0x3f36e98d	0.7145012
47	0x3f2edbb7	0.6830401
48	0xbe50b4a8	-0.20381415
49	0x3f7cf437	0.9881014
50	0xbf160a38	-0.5860934
51	0xbc6bd120	-0.014393121
52	0xbf9ce81d	-1.2258335
53	0x3f8c1a16	1.0945461
54	0x3f0ed23f	0.5578956
55	0x3e86c907	0.26325247
56	0xbf907f05	-1.1288763
57	0x3f2d58b3	0.6771347
58	0x3fb9080c	1.4455581
59	0x3d3370f4	0.043808892
60	0x3e6ff83b	0.23434536
61	0x3f1c6085	0.6108478
62	0xbeb540c9	-0.3540099
63	0xbe02df03	-0.12780385

l2.bias f4 [8]
0	0xbe82c764	-0.25542748
1	0x3db3da70	0.08781898
2	0xbf1abbba	-0.604427
3	0x3f81e072	1.014662
4	0xbe957bdf	-0.2919607
5	0xbd89b032	-0.0672306
6	0x3e4b7b95	0.19871362
7	0x3f2fcbc3	0.6867029

l3.weight f4 [7, 8]
0	0xbe3e8302	-0.18604663
1	0x3eace1db	0.33766064
2	0x3f10de59	0.56589276
3	0xbecd694e	-0.40119404
4	0x3b9faafb	0.0048726774
5	0xbf87540f	-1.0572528
6	0xbe1cd6f9	-0.1531638
7	0x3e504c8d	0.20341702
8	0xbf0ddee7	-0.55418247
9	0xbf840602	-1.0314333
10	0xbe9a061c	-0.30082786
11	0x3f79c014	0.9755871
12	0xbedaa01c	-0.4270028
13	0xbf9dade8	-1.2318697
14	0xbf4b9ce5	-0.7953628
15	0x3f790338	0.97270536
16	0x3f74ce54	0.9562733
17	0xbf146d4d	-0.5797928
18	0xbf8b718b	-1.0894026
19	0xbe26083c	-0.16214079
20	0xbfb36593	-1.4015373
21	0x3f2b017a	0.6679913
22	0xbf4fe040	-0.81201553
23	0xbf841e00	-1.0321655
24	0xbdbfebf9	-0.0937118
25	0x3f5e2958	0.86781836
26	0xbfb28813	-1.3947777
27	0x3f48217b	0.7817609
28	0x3eb4acd0	0.35288095
29	0xbd5ca8c9	-0.053871904
30	0xbf8d57c9	-1.1042415
31	0xbf4823f7	-0.7817988
32	0xbcd979fe	-0.026547428
33	0x3ec36d51	0.3816934
34	0xbe442889	-0.19156088
35	0xbf790ee2	-0.97288334
36	0xbbe1a5ce	-0.0068862205
37	0x3e4e0153	0.20117693
38	0x3ed09d85	0.40745178
39	0xbf7c1d35	-0.98482066
40	0x3e720d14	0.23637801
41	0xbf65457b	-0.89559144
42	0xbe902c70	-0.28158903
43	0xbf4febe0	-0.8121929
44	0x3f055198	0.5207763
45	0xbd2dce1b	-0.042432886
46	0xbf1eaebb	-0.6198537
47	0x3d8ad544	0.067789584
48	0xbf97e79a	-1.1867554
49	0x3ea71288	0.32631326
50	0xbfaa3e54	-1.3300271
51	0xbf0b5f2f	-0.54442114
52	0x3ee4836f	0.44631526
53	0xbf8a5c79	-1.080947
54	0x3f7a938d	0.97881395
55	0x3f299fcf	0.66259474

l3.bias f4 [7]
0	0xbe4394aa	-0.1909968
1	0x3f2382cf	0.63871473
2	0x3f21d224	0.63211274
3	0xbd8b351e	-0.06797241
4	0xbea7d7a6	-0.32781714
5	0xbed4071f	-0.41411683
6	0x3ed6d32e	0.41957992
