Chatbot running in browser/data.pth (torch, 4991 bytes, 6 tensors)

l1.weight f4 [8, 54]
000000 e8 1f 9a be 02 fd 25 3f 92 7f 99 be 3a f1 84 be
       -0.30102468 0.64839184 -0.2998014 -0.2596529
000010 56 1e a8 be 2a 78 cd 3e 0e d8 e7 bc 09 a8 84 be
       -0.32835644 0.4013074 -0.028301265 -0.2590945
000020 dd 5f 07 be d3 ac d9 be bd df 19 be e0 79 3c 3e
       -0.13220163 -0.42514667 -0.15026756 0.18405867
000030 c3 10 2b 3e 22 a9 7e 3e 1f 56 1b 3f d0 c6 4a 3e
       0.16705613 0.24869207 0.60678285 0.19802403
000040 72 2e 43 be fd 34 d8 3e 28 ef 3a 3e 39 61 ae be
       -0.19060686 0.42227927 0.18255293 -0.3405855
000050 6e 55 bc bd af 70 ae be 9a 7a ae be e8 5a 09 be
       -0.09195982 -0.34070346 -0.34077913 -0.13413584
000060 00 7a 0c 3e bb a9 8b be 5b 8a 43 3e 0b d7 35 3f
       0.13718414 -0.27277932 0.19095747 0.71031255
000070 3a 74 90 3e 8d da f4 3e 75 ce c2 3e df 0a e4 3d
       0.28213674 0.4782299 0.3804814 0.11134886
000080 d3 12 59 be de d0 a8 be 5b 39 43 3f cf 16 e6 bb
       -0.21198587 -0.32971853 0.7625939 -0.007021762
000090 b6 38 77 3e 66 dd 64 bc b0 55 a7 bd 69 84 21 be
       0.24142727 -0.013968801 -0.081706405 -0.15773167
0000a0 e1 44 ca 3e ea 04 f2 3d 2c 5c 69 3e 52 80 ee 3e
       0.39505675 0.118173435 0.22789067 0.46582276
0000b0 b8 0e 60 3d 6d f4 3d 3f 75 d0 82 be f9 c2 53 3d
       0.054701537 0.7420109 -0.25549665 0.051699612
0000c0 bc 35 44 3e 48 d1 db 3d f2 c1 61 bd 71 02 bf 3d
       0.19161123 0.107332766 -0.0551166 0.093266375
0000d0 81 d4 57 be e3 76 f9 3d 37 68 ae 3e 76 fe ab bd
       -0.21077158 0.12180879 0.34063885 -0.08398144
0000e0 bc 5a 28 3f d8 cb 1c be eb e1 90 bc 77 76 0a 3f
       0.6576345 -0.15312135 -0.017685851 0.54087013
0000f0 1b b9 eb 3e bb a2 3c 3f 27 ee 0e 3f ad b2 03 3f
       0.46039662 0.73685807 0.5583214 0.5144451
000100 dc 89 aa be 20 0a ca 3d 6c db 86 be 13 ef 45 3e
       -0.33308303 0.098652124 -0.2633928 0.19329481
000110 b1 21 2a be 61 7b 0a 3a b6 7c 9e be 4d 50 16 3f
       -0.16614415 0.0005282667 -0.30954522 0.5871628
000120 9a c5 90 3c ab 10 46 bf 59 46 8a 3e 5a 6f 1f bf
       0.017672349 -0.77369183 0.27006796 -0.62279284
000130 99 2c 0e be 26 b3 04 bd 87 88 b1 3e 49 33 30 3d
       -0.138842 -0.03239741 0.34674475 0.04301766
000140 f8 6e 19 3d 78 d1 f8 be 9b 3f 16 3e 9b e2 9e be
       0.037459344 -0.48597312 0.14672701 -0.3103226
000150 8a fd 21 3f 90 e1 39 3e d6 9b 66 3e 62 fa 28 3f
       0.63277495 0.18152452 0.22520384 0.66007054
000160 dd fe 88 be cf 0e 22 3d d3 1c d3 3d db 5e 22 3f
       -0.26756945 0.039564904 0.10308232 0.6342599
000170 26 e1 c8 3e b9 60 63 3e c5 85 05 3f 1f 45 2e be
       0.39234275 0.22204866 0.5215724 -0.17018555
000180 45 a6 e8 3d 4f 12 54 be 70 4d 5f 3e bb a1 95 be
       0.113598384 -0.20710109 0.21806884 -0.29224953
000190 97 99 3d 3f 5a a4 dd 3e 03 d8 b8 3d e6 1e da bd
       0.74062485 0.43289453 0.09025576 -0.10650425
0001a0 2a 6b d6 3d a6 f2 2e 3c 06 b8 e6 3e d9 88 58 3e
       0.10469659 0.010677969 0.45062274 0.21145953
0001b0 49 42 77 be b2 5f e9 be 24 95 af 3e 11 23 55 3d
       -0.2414638 -0.45580822 0.34293473 0.052035395
0001c0 e0 ea 04 3f 6c bf d1 bd 24 80 8f 3e 3b fc e5 3e
       0.5192089 -0.10241589 0.2802745 0.44919
0001d0 53 34 98 3e e9 72 d8 3e ee 10 49 3e a8 b4 8f be
       0.2972742 0.4227517 0.19635364 -0.28067517
0001e0 d7 39 1b 3f 39 f3 82 be b0 5a 63 be ac 61 82 be
       0.6063513 -0.2557619 -0.22202563 -0.25465143
0001f0 af 4d 00 3e b3 46 b1 bd b5 1e d3 3e 4e 49 8b 3e
       0.12529634 -0.08656063 0.41234365 0.27204365
000200 44 33 dc bd 60 42 9a 3e 1c db e5 3e 0e 93 44 3d
       -0.10751966 0.30128765 0.4489373 0.047991805
000210 26 d1 56 be 69 0a 85 3e 06 d3 0a 3f d9 fb d0 be
       -0.20978221 0.25984505 0.54228246 -0.40817145
000220 8c 6d c8 3e b9 ec ac be 0f ab 05 be b2 c2 51 be
       0.39146078 -0.33774355 -0.13053535 -0.20484427
000230 41 2e fe bd e9 0e b8 3e 50 83 d3 bd 3f 96 38 be
       -0.12411166 0.35948876 -0.1032778 -0.18026064
000240 44 f6 85 3e 2c d0 ef 3e c1 65 97 3e 90 ea cc 3e
       0.26164448 0.4683851 0.2956982 0.40022707
000250 f4 87 eb bd c1 9c 00 3f 92 b4 8f be 4d dd fd bc
       -0.115005404 0.5023919 -0.28067452 -0.030989313
000260 c1 62 28 3e a6 a9 1a be cf 62 07 bf 8d 24 38 be
       0.16443922 -0.15103778 -0.52885145 -0.17982693
000270 ac 17 a9 3e dc ae 0c 3f 86 11 57 be fb 7b 9f 3e
       0.33025873 0.54954314 -0.21002778 0.31149277
000280 20 0f b0 3e e5 03 e9 3e 5e e8 15 3f d7 b4 09 3f
       0.3438654 0.45510784 0.5855769 0.53791565
000290 6c 1f 02 bf a5 e4 8c be fc 41 ad bd 71 37 ad bd
       -0.50829196 -0.27518192 -0.08459851 -0.0845784
0002a0 77 50 d7 bd 66 b4 14 bf d5 59 e2 be f9 a6 20 bf
       -0.10513394 -0.58087766 -0.4420916 -0.6275478
0002b0 8a 81 01 be be fc 12 3f db 1a f4 3e 3d 97 f5 3e
       -0.12647071 0.57416904 0.4767674 0.47966948
0002c0 eb 02 9f 3e 78 5b c5 3e a3 8c a2 be cb f1 67 bd
       0.31056914 0.38546348 -0.31747922 -0.056627076
0002d0 20 b6 1e 3f 40 bd c0 be 8b 87 99 3e 2f 58 de be
       0.6199665 -0.37644386 0.29986224 -0.43426654
0002e0 a4 35 cf be d9 2d b0 bd ab f0 65 3e 9f 43 79 be
       -0.40470612 -0.08602495 0.22455089 -0.24342202
0002f0 f6 2a 00 3f 60 3e 11 3e aa 35 0c 3f 78 31 e3 bd
       0.50065553 0.1418395 0.54769385 -0.1109342
000300 19 3c 72 bd d3 dd e7 3e 60 9c da 3e 1a 94 11 bf
       -0.059139345 0.45286426 0.4269743 -0.5686661
000310 4a 30 08 3f b6 d5 d0 3e b2 3b 08 3f 14 ea 9d be
       0.53198683 0.40788049 0.5321609 -0.3084265
000320 1a 47 12 be 26 50 4b be ed f1 49 bd bf b9 3b 3f
       -0.14284936 -0.19854793 -0.049302984 0.733303
000330 50 7c d8 3e a0 1d 90 3e 48 b8 91 3e 5e 42 fe 3e
       0.42282343 0.28147602 0.28460908 0.4966001
000340 89 30 6a 3f fb 7d e7 3e 84 0e a3 3e 67 78 4c 3f
       0.9148031 0.45213303 0.31847012 0.7987122
000350 fa d0 7b 3e 10 fd 17 3f c2 54 af be ed c7 8a 3e
       0.24591437 0.5937052 -0.34244353 0.27105656
000360 ee eb 06 be 21 37 80 3e 1b 5c 16 bf 8c fe c7 3e
       -0.13175938 0.2504206 -0.5873429 0.3906139
000370 63 dc 95 3e 6f b9 29 bf 58 f8 9a be 76 8b 02 bf
       0.29269704 -0.66298574 -0.30267596 -0.5099405
000380 1e e8 eb be 3c 35 0b bf ff 6d ad 3e 5b f0 10 3f
       -0.4607553 -0.54378104 0.33872983 0.56616753
000390 dd cf d0 3e 6e cd 2c 3f bd 10 a9 3e df 10 d1 3e
       0.40783587 0.6750096 0.33020583 0.40833184
0003a0 2e ec d9 3e 39 b5 29 bf 78 93 f9 3e 9c 71 24 3f
       0.42563003 -0.6629215 0.48745322 0.64235854
0003b0 e0 82 7c be 59 96 37 3f 39 be 22 3f 3e 53 59 3f
       -0.246593 0.7171379 0.63571507 0.8489264
0003c0 b6 81 d3 3e 72 6c eb 3e 37 b2 12 3f 0f 43 f5 3e
       0.413099 0.45981175 0.57303184 0.47902724
0003d0 cf 71 4e 3e 29 7d 95 3e 43 4c 9c be b9 37 14 3f
       0.20160602 0.29197052 -0.30526933 0.57897526
0003e0 00 3f 50 bc 61 67 e2 be ae 20 79 3e 4a 23 c6 3e
       -0.012710333 -0.44219497 0.24328873 0.38698798
0003f0 5f 85 b3 3e e2 31 f7 be 15 cf 6f be f3 b9 76 be
       0.35062692 -0.48280245 -0.2341884 -0.24094371

l1.bias f4 [8]
000000 8a 6b ae 3e be e1 6e 3f fa 62 07 3f c2 57 10 3f
       0.3406642 0.93313205 0.528854 0.5638391
000010 4e ba 29 3f fe e1 1a 3f 2c dd 14 3f eb e9 e1 3e
       0.66299903 0.60501087 0.5814998 0.44123778

l2.weight f4 [8, 8]
000000 ba 54 e6 3e a3 a4 c0 be 6a 21 05 3d c8 4f c0 3f
       0.44986516 -0.37625608 0.03250257 1.5024347
000010 ed ce 67 3f a0 f9 a9 bf 20 e3 70 3d ee 4b a5 3f
       0.9055012 -1.3279305 0.058810353 1.2913797
000020 a0 85 90 be b8 bd 11 3f 21 80 5d 3e 52 55 d8 3e
       -0.28226948 0.5693011 0.21630909 0.42252594
000030 db 26 83 3f 6f 4b a9 3f 13 a2 68 3f db f8 a0 bf
       1.0246233 1.3226146 0.90872306 -1.2575945
000040 20 c0 ac be f4 ce 0e 3f 13 bb 88 bf 29 48 83 3e
       -0.3374033 0.55784535 -1.068209 0.2564099
000050 80 79 af 3e 5d c5 ee be d4 47 16 3f 4c 2a 7b 3d
       0.34272385 -0.4663495 0.5870335 0.061319634
000060 c0 8e cd bd 70 e2 89 3d b0 9a 51 be 39 bc 61 be
       -0.10036993 0.06732643 -0.20469165 -0.22044457
000070 cc ff 93 bd 29 4f 83 be 7b ae 9f 3e 49 f8 81 be
       -0.07226524 -0.25646332 0.31187806 -0.2538474
000080 48 29 42 bf 8a b6 6a be 06 36 84 3f b7 f8 fb be
       -0.7584424 -0.22921196 1.0328987 -0.49213192
000090 f0 40 3b 3e 8e 39 37 3f 37 fb 67 3f 0d 20 1b 3f
       0.1828649 0.71572196 0.906177 0.6059578
0000a0 75 f3 7a bf f8 e1 30 3e be bb 18 3f a6 cb 63 bf
       -0.98027736 0.172737 0.5966147 -0.8898262
0000b0 95 8b 8d 3e cf cb 59 3f b9 89 4b 3f a7 c1 c3 3e
       0.27645555 0.8507661 0.79507023 0.38233683
0000c0 51 dd 80 be b8 ac dc 3f ef bb 30 3f 69 3a d7 3e
       -0.2516885 1.724021 0.69036764 0.4203675
0000d0 dd 26 bc bf a0 ff 50 bd 5b a3 39 3f c0 57 3e 3f
       -1.469936 -0.051025033 0.72514886 0.74352646
0000e0 44 97 14 bf e3 7c 0a 3f 97 64 09 bf 83 c5 ff 3e
       -0.58043313 0.5409681 -0.5366911 0.49955377
0000f0 28 74 13 bf 6c 9a 22 bf 9b d5 8c be a9 8d 59 3f
       -0.57599115 -0.6351688 -0.27506718 0.8498178

l2.bias f4 [8]
000000 40 e9 0f 3e 7d b7 ed 3e d8 cf 71 be 1f a1 95 be
       0.14053822 0.46429053 -0.23614442 -0.29224488
000010 22 80 f6 bc 7c bf d7 bd 2c ac 67 3f 17 d6 65 3d
       -0.030090395 -0.105345696 0.9049709 0.056112375

l3.weight f4 [7, 8]
000000 6e d3 73 3d ef 91 1b 3f d0 e0 24 3f c2 6b 7b 3e
       0.059527807 0.6076955 0.64405537 0.24552825
000010 a9 77 93 bf 9b 35 7c bf c6 17 73 bf 36 7d 38 bf
       -1.1520892 -0.98519295 -0.9495815 -0.72066057
000020 b9 d5 64 3f 5a fb 9a bf d9 b4 8e bf 3a b8 53 3e
       0.89388615 -1.2107956 -1.114894 0.20675746
000030 64 a5 93 bf 54 1d 58 bf 30 0f 84 bf 86 aa 55 bf
       -1.1534848 -0.8441975 -1.0317135 -0.83463323
000040 18 fe 50 bf 97 1e 02 3f 80 39 fb bf 14 e8 41 be
       -0.81637716 0.50827926 -1.9626923 -0.18936187
000050 39 dc a5 bf 65 0b a5 bf c6 07 84 3f e2 5e bd bf
       -1.2957832 -1.2894102 1.0314872 -1.4794581
000060 12 1e 85 bf 08 49 67 3f c0 b6 43 bf d8 b3 48 3d
       -1.0399802 0.9034581 -0.7645073 0.048999637
000070 c8 73 13 3f 32 8b 1a 3f 9e ad 29 bf 6a 90 43 bf
       0.57598543 0.60368645 -0.66280544 -0.76392233
000080 ba 82 82 3e e0 8f 38 be fc 91 7c bf 8a d7 7f 3e
       0.2549036 -0.18023634 -0.98660254 0.24984565
000090 a1 d9 63 3e 00 45 ad be bd 77 ae bd fa d3 8f bf
       0.22250988 -0.33841705 -0.08518932 -1.1236565
0000a0 9e 37 44 bf 7e 4d 80 bf c5 cc ab 3e 08 7d a7 3d
       -0.76647365 -1.0023649 0.33554664 0.08178145
0000b0 7a 68 0f 3f 58 98 18 3f 9e 64 f1 3e ac 15 01 bf
       0.56018794 0.5960746 0.47147077 -0.50423694
0000c0 0e f5 aa 3a 3c 40 b8 bf 46 31 2e 3f 87 9a 9a be
       0.0013043003 -1.4394603 0.68043935 -0.3019602
0000d0 14 c8 72 bf f9 32 79 bf 3b a4 08 3f c1 b3 74 3f
       -0.94836545 -0.97343403 0.53375596 0.9558678

l3.bias f4 [7]
000000 16 45 ad be 70 39 33 3f fb 86 3a 3f ce 8d 70 be
       -0.3384177 0.7000952 0.72862214 -0.23491594
000010 e8 c4 04 bf 7f ad f5 be 9a c5 3e 3d
       -0.51862955 -0.4798393 0.046575166
